model/model_67.pth (torch, 9024 bytes, 4 tensors)

linear1.weight f4 [256, 4]
00000000: 68eb 2fbf e414 5abf a20a 12bf 8b67 9f3d
00000010: da16 0fbe 7a01 6bc0 7545 46be 1c39 2dbf
00000020: 375b 123f 7c3d 40bf 5e94 3abf 0e72 34be
00000030: 07e7 cb3b 6e62 cdbd 9ace 463e 98f3 11be
00000040: 8d7b 79bf 444c 25c0 2d56 873f 8803 87be
00000050: 7b45 683f 51fc 15c0 6d41 87bd a175 34bf
00000060: 072c 95bf 0fbd 22c0 4655 a73f d320 443e
00000070: 5669 473d 29d7 ddbd 95b0 95bf 07ea 743d
00000080: e5b1 53bf 3f8b 873d b763 3bbf f7e6 463d
00000090: 012a 243d 5147 b0be 7d13 2abf 0ed8 063d
000000a0: e596 033f b039 73be cb5e 2ebf 22bd b8bd
000000b0: a39e a6be 1cb3 ce3d aae0 cebd 9cc0 cb3a
000000c0: 50f2 20be a0aa e7bd 80df 8c3d e49f 26be
000000d0: 9cb9 28be 7c88 80bd 9dd3 9ebe ea4b dbbd
000000e0: 1164 67bf ec72 46bf 29da f13e 4e30 c43c
000000f0: 535b 01be 4ba9 63c0 963c cabe 5297 13bf
00000100: 0b84 3dbf 044e 87c0 6eb7 a93e 5208 65be
00000110: b12e 42bf 4b95 cd3c f724 3e3e e4dc 023c
00000120: 5172 243d ab71 7fc0 9487 3ebf 7e02 86bd
00000130: 2452 d83d e71d 9e3d 1a5a 6ebf 4378 d53c
00000140: c8bf bb3e 5466 5940 2271 57bf 880b 833e
00000150: 44c1 f1be 0244 b8be b024 713d a45d aabe
00000160: 3d80 44bf 39a0 04c0 6865 743f 2033 f3be
00000170: f605 89bd da80 34c0 5836 1140 38da 52be
00000180: b9b7 3ebf 58b2 24c0 577f a63f 0973 ddbe
00000190: 2ceb 9b3e 1fa9 b6bf 0ec5 0c3e da3e b4be
000001a0: 29fd 1e3f a94d acbf 4dd6 b6bf 645d 06be
000001b0: b76f fbbe 412e 52bd b5c3 1abe c21b c0bc
000001c0: 63f4 353e aabf 71be f9f1 38bf 49ba 0cbd
000001d0: c6f5 5fbf e91c 19bf 873d 1b3f 69e7 863c
000001e0: 61a5 913e c1af a83d ddcc 69bf 2128 853a
000001f0: 0b06 f9bd 5a84 04bf 1f04 a63e 4729 5cbd
00000200: 73ff c9be 63c5 8dbe 71d3 e93c 5233 5e3d
00000210: 164f c13f 6726 0b3f 0205 63bf 5d98 84bd
00000220: bdd6 bfbe 251c 91bf 53fd 68be 85d1 95be
00000230: a810 203d a2ce 14bf 8b08 98bd 3907 f2bd
00000240: 48c0 84bd 40e8 c4bd e87b afbe 12a4 e1be
00000250: c5be 6abe e6b4 48c0 7efe 5b3e fb94 43bd
00000260: de86 48bf 5314 24bd 54b1 683e 8333 153d
00000270: 89e8 2f3f aaea 8b40 e9b7 96bf c1cf d33c
00000280: a534 41bc aef7 debe 8e8c 973e 2013 16be
00000290: 7d21 243f 2be7 fabe 7a38 3ebf fdf8 adbd
000002a0: 03a4 28bf 56ab f3be 71fe 94bf 4973 843d
000002b0: 5539 9ebe e7fe 043e 23d6 893e fe17 5d3c
000002c0: 67a8 6dbf 2c22 3cc0 245a a53f be89 5e3e
000002d0: c88f b83e 2e09 26bc 24e9 26be 9e2f efbd
000002e0: fc08 663d 5695 67be 3762 b33e 07ca e7bc
000002f0: 9b59 803e 23b0 e7be 6867 ecbd 9f95 0ebe
00000300: 7053 d33d 0060 73ba 60e1 a0bc 3639 e6be
00000310: a022 54be fc31 83be 6671 dabe 22cf 81be
00000320: 4ff4 273e 524f 97bd 3251 d23e 60f4 57bf
00000330: 79a1 8fbd 893a db3d 4a82 d2be 38c3 043c
00000340: e66f 5cbf 776f 4fc0 ced1 34bc 8ff7 433c
00000350: c8fb a9be d979 9f3e deec c0bf 5888 b53d
00000360: 32a3 4e3f f3ad 9fc0 f546 b5bf b56c 9e3d
00000370: 4940 77bf d445 98bf 86a3 b53d f4ee bd3d
00000380: 3777 efbe 5a3a b5be 2137 42bf ec8b 3c3d
00000390: e01c 283e deab 90bf eec9 c4be 59cc 42be
000003a0: b958 203f 234d 6c3f dae6 3fbf 4fa1 bdbe
000003b0: 6e07 6fbf 16ca 63c0 6bb2 a23f 755d b2be
000003c0: fe81 62bf 1343 583e b8c1 8abe cb4f ee3c
000003d0: d8b4 6cbe f0e6 e2be 3896 a5be 98fa 48be
000003e0: fc72 49bf 36cf 16bf f6b7 4c3f 90ae 263d
000003f0: 9832 24bf 4bc0 ffbd 3218 1fbf 5779 1b3d
-0.68718576 -0.85188127 -0.57047474 0.07783421 -0.13973561 -3.6719651 -0.19362433 -0.67665267
0.5717043 -0.7509382 -0.7288264 -0.17621633 0.006222609 -0.100285396 0.1941475 -0.1425308
-0.9745415 -2.58278 1.0573174 -0.26369882 0.9073102 -2.3435252 -0.06604276 -0.7049199
-1.1654061 -2.5427892 1.3072898 0.19153146 0.04868444 -0.10832054 -1.1694514 0.0597935
-0.8269332 0.06618356 -0.7319903 0.04856011 0.04007912 -0.3442941 -0.66435987 0.03292089
0.5140212 -0.23752475 -0.6811339 -0.09020449 -0.32542905 0.10092756 -0.10101445 0.0015545073
-0.15717435 -0.11311841 0.06878567 -0.16271931 -0.16477054 -0.06276032 -0.31020823 -0.10707839
-0.90387064 -0.77519107 0.47236755 0.023948815 -0.12632494 -3.5572078 -0.39499348 -0.5765277
-0.74029607 -4.2282734 0.33147758 -0.22366455 -0.75852495 0.025095602 0.18568788 0.007987235
0.040148083 -3.9913127 -0.74425626 -0.06543444 0.10562542 0.07720547 -0.93106234 0.026058322
0.36669755 3.3968706 -0.84157 0.25594735 -0.47217762 -0.35989386 0.05887288 -0.33274567
-0.76758176 -2.0722792 0.95467234 -0.47499943 -0.0669059 -2.8203645 2.2689419 -0.20591056
-0.7449909 -2.5733852 1.3007611 -0.43251827 0.3045286 -1.4270362 0.13747045 -0.35204202
0.6210504 -1.34612 -1.428415 -0.13121563 -0.4910867 -0.051313642 -0.15113719 -0.023450736
0.17769007 -0.2360827 -0.7224422 -0.034357343 -0.87484396 -0.5980974 0.6064076 0.016467767
0.28446487 0.082366474 -0.9132822 0.0010159054 -0.12159356 -0.5176445 0.3242502 -0.053750303
-0.39452705 -0.27689657 0.028543206 0.05424816 1.510226 0.5435547 -0.88679516 -0.064743735
-0.3746852 -1.1336714 -0.22752886 -0.29261413 0.039078385 -0.58127797 -0.074235044 -0.11817784
-0.06481987 -0.09614611 -0.3427422 -0.44070488 -0.22924335 -3.1360412 0.214838 -0.0477495
-0.7833079 -0.040058445 0.22723895 0.03642608 0.68714195 4.3723955 -1.1774875 0.0258559
-0.011792337 -0.4354834 0.29599422 -0.14655733 0.641136 -0.49004492 -0.74304926 -0.08494756
-0.6587526 -0.47591656 -1.1640149 0.064673014 -0.30903116 0.12987863 0.26921186 0.01349449
-0.92835087 -2.9395857 1.2918134 0.21732232 0.36047196 -0.010134025 -0.16299874 -0.11679004
0.056160912 -0.22615561 0.3503587 -0.028294576 0.25068364 -0.4525157 -0.11543161 -0.13924263
0.10318649 -0.00092840195 -0.019638717 -0.44965523 -0.20716333 -0.25624073 -0.4266464 -0.25353342
0.1640179 -0.07388176 0.41077572 -0.8435726 -0.0701322 0.10704524 -0.41115028 0.008103184
-0.86108243 -3.2411783 -0.011036349 0.011960878 -0.33199906 0.3114765 -1.5072286 0.08863896
0.80717766 -4.989984 -1.4162279 0.07735578 -0.96582466 -1.189631 0.0886908 0.09274092
-0.4677064 -0.3539608 -0.7586537 0.046031877 0.16417265 -1.130245 -0.3843531 -0.19023265
0.6263538 0.923052 -0.74961627 -0.3703713 -0.9337071 -3.5592093 1.2710699 -0.34836927
-0.884796 0.21119337 -0.2710092 0.029090783 -0.23115861 -0.44316816 -0.3234117 -0.19626844
-0.7869108 -0.5890993 0.799682 0.04069382 -0.641397 -0.12487849 -0.62146294 0.037957516

linear1.bias f4 [256]
00000000: 9349 3cbf da6d 673e 5e04 18be 7532 afbe
00000010: ec01 c7be 927f 3dbf 8a9f 5dbf 5d4f d2be
00000020: c27e 9abd 6256 abbe 11d1 bcbd bd5b afbd
00000030: a8dd ebbd 6144 4e3e 058c 35bf a939 8b3e
00000040: 421c 7c3c 6475 ecbc 795f 69be 8704 51be
00000050: 9832 dbbb 1e73 fabe 2c6e 4dbe 22d8 a93f
00000060: 1c03 25bf 2e7f 3bbf 14f3 ce3e c293 653e
00000070: c730 0b3e 4881 f9be 6692 abbe e15a e0be
00000080: dde5 4fbf 3364 e0be 9b0c 843d fd89 bbbd
00000090: f44e 3abe a88e 9bbe 6ecc 49bf 50e5 313e
000000a0: 021e efbe e162 50bd 7c0f bc3d 8d65 a3be
000000b0: 0bea 82bf 8baf 84be a86d 0abf c623 97be
000000c0: 3e76 fcbe 123a f2be ffce 2f3f c6ad 16be
000000d0: d79e a1b9 b86c 17be b125 ad3e da11 83bf
000000e0: b7c6 5ebe 04c7 26bd b2e6 703d 3588 8b3e
000000f0: 8aae 2cbe 7050 89be 41a2 a1bf c571 81be
00000100: f1de 3abe d181 59bd b056 10bf 2ed1 123e
00000110: 58cf cfbd 08e5 21bf 9341 99bf 39d9 03bf
00000120: 4902 88bf a7ce 3a3a 92b9 743e f1b4 54be
00000130: e74f 1dbe f4ad 323f b089 88be db8c dbbe
00000140: 6699 aa3d 4d14 35be 2a39 25be 2404 25bf
00000150: 18ab 3b3c 8a94 2c3d 8531 cd3e 1519 09be
00000160: 5de9 91bf 7b16 65be 95f0 333e dece 91be
00000170: dbcc 70be c237 1ebf 4595 853f 64d3 0a3d
00000180: 83ef 163e 8991 e8bd 45ad f9be 0740 a8be
00000190: 48cf 813e 5f0b a8be 55e8 9cbf bb1a bdbd
000001a0: c119 7c3f 5b19 02bf 535f f1be 7a97 8cbe
000001b0: 2c68 6a3b 139c bebc a72f 69bf 2564 7a3f
000001c0: 1496 7f3e 8d68 1abf bff2 5c3d b26b d43b
000001d0: 49c8 42bf 30ea d8be 05fa aebe e837 87bd
000001e0: a5f3 5bbf 450e 0bbf 4da1 e2be 4cb5 4abe
000001f0: 97d5 bc3d 0627 e43d 5674 f3be 9dba 00bf
00000200: f56b 113d aa73 53bf b259 cdbd 731c 1ebd
00000210: f814 5bbe dc01 54be d6a2 d8bd 324e 65be
00000220: c436 dbbe 1057 80be d9d4 96be 98d6 db3b
00000230: ec60 68be 7243 5abe 247a 60be 3f80 62be
00000240: 01e4 02bf 363d cebe e6fa e93e e153 f3be
00000250: bd9f 6a3d 4f0a 4cbf fa5d 49bf 76c8 e7bd
00000260: 134e d4be 17f5 783f 4cff debe 9086 1cbf
00000270: 1073 64bd 4300 42bf d5dc 6cbf e35c 8dbe
00000280: 8ed1 83be de49 52be c0c1 78be c04c 7ebc
00000290: 4aaf 603e d669 b3be 7fe2 98be e690 babe
000002a0: 7656 3dbd 225c 01be e28f 273f 9614 d6be
000002b0: c174 aabe 279e 63bd 4db7 b13e 30b3 86bf
000002c0: e673 c8be b66c afbe 12fd 76be 338b 3ebe
000002d0: 063c 2fbe b6bd 823e 2b49 bfbe e8bc 53bd
000002e0: f159 45bf aa64 f8bd d617 f33e 81a2 02be
000002f0: bf56 4cbf cfb8 6c3f ec74 a03e 19e1 96be
00000300: 0e23 24bf d0b8 f83e 9603 51be dcb6 863d
00000310: 0f6f 233e 3b22 d23e 5a3a eebe f44e 313f
00000320: 6d7b 303e e8e0 78bf 6a96 cebe 0123 893d
00000330: 6897 99be ceb9 87bf e84c 52bf 0835 973f
00000340: 5bc6 94be dc25 69be 2e97 95be dc8d 773d
00000350: 591a 8c3e 0f29 ffbe f428 1ebf 22ac f4be
00000360: 6a53 dcbe 3979 83be 579b 2dbe f1d4 ea3e
00000370: 5d84 2a3f b7de e03d f8c7 fd3c 4b29 19bf
00000380: 01be 1ebe 9985 3dbe b4e3 14bb 8e7d 883e
00000390: f106 3c3e d5b0 9cbe e989 ddbe 23e9 923e
000003a0: 2674 b8be 482a ebbe 13a6 fdbc 0232 09be
000003b0: f21b 5ebe b73b c2be 53eb 72bf dad9 17bf
000003c0: 5826 bbbe b090 1b3f 15fd 65bf 66d0 a8be
000003d0: e8d4 a3be 5030 9ebe 7c48 c1be e255 5fbf
000003e0: eb2d 87bf 19ac 5ebe 8714 753e f832 963e
000003f0: 3eee ffbe 8b42 593d 4112 68bf 8d7e 8fbe
-0.73549765 0.22600499 -0.14845416 -0.34218183 -0.38868654 -0.7402278 -0.8657156 -0.41076174
-0.075437084 -0.33464342 -0.09219564 -0.085624196 -0.11516887 0.20143272 -0.7091678 0.2719243
0.015387597 -0.02886457 -0.22790326 -0.20411883 -0.006689381 -0.48915952 -0.20061558 1.3269083
-0.6445787 -0.73240936 0.4041983 0.22419646 0.13592826 -0.48731446 -0.3351013 -0.43819335
-0.8121012 -0.43826446 0.06447717 -0.091571786 -0.1819418 -0.30382276 -0.7882756 0.17372632
-0.46702582 -0.05087555 0.09182641 -0.31913415 -1.0227674 -0.2591518 -0.5407357 -0.2951948
-0.49308962 -0.4730993 0.68675226 -0.14714727 -0.00030826658 -0.14787567 0.3381782 -1.0239823
-0.21755491 -0.04071714 0.05881376 0.27252355 -0.16863456 -0.2681918 -1.2627641 -0.25282112
-0.18249108 -0.05310232 -0.56382275 0.14337608 -0.101469696 -0.632401 -1.1973137 -0.5150333
-1.0625697 0.00071261305 0.23898914 -0.20772149 -0.15362512 0.6979668 -0.26667547 -0.42880902
0.0833004 -0.17683525 -0.16135088 -0.64459443 0.011454366 0.042133845 0.40076843 -0.13388474
-1.1399342 -0.22371857 0.17572244 -0.2847814 -0.23515646 -0.6180383 1.0436178 0.033893004
0.14739804 -0.11355884 -0.48765007 -0.3286135 0.25353456 -0.32821175 -1.2258402 -0.09233614
0.984768 -0.5081994 -0.4714304 -0.27459317 0.0035767658 -0.023267781 -0.91088337 0.9780906
0.24959594 -0.6031578 0.05394244 0.006482565 -0.7608686 -0.4236617 -0.34175125 -0.0660246
-0.8591865 -0.5431865 -0.44263688 -0.19795722 0.092204265 0.11140256 -0.47549695 -0.5028475
0.035503346 -0.82598364 -0.10026874 -0.03860135 -0.21394718 -0.20703834 -0.105779335 -0.2239311
-0.4281522 -0.25066423 -0.29459265 0.006708931 -0.22693223 -0.21314791 -0.21921593 -0.22119235
-0.51129156 -0.40281075 0.45699233 -0.47524932 0.057281245 -0.7970323 -0.7865902 -0.11317532
-0.41465816 0.9724898 -0.4355415 -0.61142826 -0.055773795 -0.7578165 -0.9252446 -0.2760993
-0.25745815 -0.2053599 -0.2429266 -0.015521228 0.21941867 -0.35041684 -0.29860303 -0.36438674
-0.046225034 -0.12632802 0.6545392 -0.4181258 -0.332922 -0.055570748 0.3471016 -1.0523434
-0.39150923 -0.34262627 -0.24119976 -0.18607788 -0.17112741 0.25535363 -0.3736051 -0.051693827
-0.77090365 -0.12128575 0.47479123 -0.12757303 -0.79819864 0.92469496 0.31339204 -0.2946861
-0.6411599 0.485785 -0.20411524 0.065778464 0.15960334 0.4104174 -0.46528894 0.692611
0.17234583 -0.9721818 -0.40349132 0.066961296 -0.29998326 -1.0603578 -0.821486 1.1813059
-0.29057583 -0.22768348 -0.29216903 0.060438022 0.27363852 -0.49836013 -0.6178124 -0.47787577
-0.4303239 -0.25678423 -0.16953789 0.45865586 0.6660822 0.109799795 0.030979142 -0.59828633
-0.15502168 -0.18507995 -0.002271873 0.2665829 0.18362023 -0.30603662 -0.4326928 0.28693494
-0.36026114 -0.45930696 -0.03096298 -0.13397983 -0.21690348 -0.37936184 -0.94890326 -0.5931679
-0.3655269 0.6076765 -0.898393 -0.32971495 -0.31998372 -0.30896235 -0.37750614 -0.8724042
-1.0560888 -0.21745338 0.23933612 0.2933576 -0.49986452 0.053041976 -0.90652853 -0.28026238

linear2.weight f4 [2, 256]
00000000: ff42 52bf 3e24 663d 4578 7b3c a7eb 08be
00000010: 1c9f 923e 4f4f c33f 9936 a6bf e14f a5bd
00000020: 73ec 7ebb 0223 543d 1307 b03b 57ad 293c
00000030: c854 633c 1f35 e4bb bcfd 0e3b dca1 00bf
00000040: df0d 94bf 0011 66bb c522 633f 43cb 873c
00000050: 2bad c7be 0038 353c 7ffb 6d40 ac3d e6be
00000060: 5da1 9ebe 3b66 823d 920a 0d3f 4f3f c03c
00000070: e488 55bd d91e 94bd 3473 61bb 1d04 413f
00000080: d163 4f3e d6b8 64bd 799a 9cbe 9a05 7abe
00000090: 5642 343d e502 463d 65e1 c4bc b39d 17bf
000000a0: 7a22 803d 8145 03bd 6c77 0fbd 0250 d9bc
000000b0: bded a5bf 6fd3 763b 199c cebc bbde d7bd
000000c0: aadf 613d 888e 873c fa0d 02bf ee50 aebc
000000d0: 0b4b 5b3d 5422 19be 4719 3740 32c2 22be
000000e0: 281f 50bc c369 8bbe 7e4e 963e b026 71bf
000000f0: c3ba c13c 602a 23bc 86b2 833c 8b6e 54be
00000100: 78b3 b1bc 1655 1c3c 693f 40bd 0c17 f33b
00000110: ddf2 0e3e 1914 5bbe 0228 c6bd 548e c33c
00000120: 4af3 66bd e67a 1d3d 59d3 cfbc 9978 debd
00000130: 11bb d83c 312d 513f c0f6 c9bb 70b1 a93b
00000140: f5ec b23e e8b6 053f 4dc0 3bbe 6dab a73c
00000150: dbb7 ec3f 1c5c 9f3f e7a7 04bc ca10 5fbf
00000160: c29e d2be 2bc0 1dbc 340e 1d3c 67d9 c63d
00000170: 1a31 2fc0 aa98 f9be 5010 793e d4e3 62bc
00000180: bc00 05bd b9ce 89c0 7756 6c3c 5862 8f3d
00000190: 527e 8e3e f9f0 963e 906d 9bbe 444e 7cbc
000001a0: 806f b53f 9081 de3b 6143 05bf 5013 23bc
000001b0: 3615 84bc de1c 393f 7cfe 86bd e810 7fc0
000001c0: 6459 ebbb 1321 a23d f0af 9c3c e120 2a3b
000001d0: cefc f23e 8cfe adbc 7e25 353f 8d71 ca3f
000001e0: 31d1 673f e76f dbbd 4a5c a03f 7414 a13c
000001f0: 1019 ec3e f31e 28bd dbbe a3bd fda5 73be
00000200: cbb2 8d3c 7f13 4fbf f9b0 dc3c 1f52 35bc
00000210: 4294 74bb 6060 d3bc 479e 54bf 9958 74be
00000220: d283 443f 7cd3 89bc 76b0 94bc aac4 053d
00000230: a898 99bc ca22 9d3d f73c 9f3d 4035 ce3f
00000240: 81a9 0eb8 f2eb 223d 313b 4fbe 89f8 fbbd
00000250: cb0e d9bf 91c6 11bf ba5b 9c3f 82f0 0fbd
00000260: 9ce5 d53b b9de d5be adc7 dfbf 6ede 72bf
00000270: 79f2 2d3f f6ba afbd c50b cabe 5c26 103f
00000280: ac8c d0bc 25eb 2ebd e49d 41bb 50bd 0a3d
00000290: 32b5 a73e 8e88 1fbc 71b9 95bb 5f0c 633d
000002a0: b6ba 5b3d a7de d33b 612a 95be 311e 623f
000002b0: 142a 42bc 5945 453f e81c 64bf f859 4dbf
000002c0: 426b 2a3f 8678 3fbd 6ce5 97bc 6d9e 0a3d
000002d0: b352 403d ecee 98bf a891 99bd 4e9c 9fbc
000002e0: d85b 1abd b48f 153e 1718 03be 0405 fcbc
000002f0: 3b5f a9bd 18d9 24c0 ea47 cbbd 7ed4 263d
00000300: 229d b33d 560f 91bd c98b c1bc 7756 3cbd
00000310: fca1 573e 612f c13f 9094 d0bb 5e52 5dc0
00000320: 8088 74bf 885e b0be 9cd3 8cbc fdc5 ef3d
00000330: 3ad3 44bd d0ec a3bf 480d 7ebe 22a0 1d40
00000340: c4fc f7bf 1c10 1d3d 664a 003d 48a4 bb3f
00000350: 4c9c 0d3f d892 cabb 2adc fbbd 6c25 593d
00000360: 8d80 8f3c e878 273c 2944 60bf 8006 21be
00000370: 4c46 9dbf bbf0 bd3e cc3e 103c c61d 6ab9
00000380: 8a13 5ebb 1446 483e e184 0abc 1dba 0f3f
00000390: bd48 d03e 6331 b440 38c2 d63f b707 cfbd
000003a0: 3c29 0dbf 0439 343e 59ba a43c 1610 61bc
000003b0: 0541 5c3f 7ec6 80bc 670c f7bf d052 fd3e
000003c0: b465 753d 684c 433e 2b3f 77bf 2073 d9bb
000003d0: bfe6 623d be1c f33b ce65 b53c 61b8 2c3d
000003e0: b469 58be f031 b53e ecf2 1b3d f224 1e40
000003f0: 5ee7 713d 6c3b 2b3f 8887 f0be 111c 1bc0
-0.8213348 0.056186907 0.015348499 -0.13371144 0.28637016 1.5258578 -1.2985412 -0.08071876
-0.003889826 0.0517912 0.005371937 0.010356269 0.013875194 -0.0069643403 0.0021818718 -0.5024698
-1.1566733 -0.0035105348 0.8872493 0.016576415 -0.38999304 0.011060715 3.718475 -0.44968927
-0.30982485 0.06367155 0.55094254 0.023467688 -0.052132502 -0.07232446 -0.0034400942 0.753969
0.2025292 -0.055840336 -0.30586603 -0.244162 0.044008575 0.048342604 -0.024033258 -0.59225005
0.06256576 -0.032048706 -0.035026 -0.026527409 -1.2963177 0.0037662645 -0.025220918 -0.10540529
0.055144943 0.016547456 -0.50802577 -0.021278825 0.053538363 -0.14954501 2.8609178 -0.15894392
-0.012702741 -0.27229127 0.2935676 -0.9419966 0.023648625 -0.009958833 0.016076338 -0.20745294
-0.021692023 0.00954177 -0.046935473 0.007418519 0.13959832 -0.21394385 -0.096756 0.023871578
-0.056384362 0.038447283 -0.025369333 -0.10862846 0.026456388 0.8170958 -0.006163448 0.005178623
0.3494641 0.5223222 -0.18335076 0.020467484 1.8493608 1.2449985 -0.008096672 -0.87134993
-0.41136748 -0.009628336 0.009585906 0.09709435 -2.737372 -0.48749286 0.24322629 -0.013848264
-0.032471403 -4.3064847 0.014424912 0.070011795 0.2783075 0.29480723 -0.30357027 -0.015399519
1.4174652 0.0067903474 -0.5205594 -0.009953335 -0.016123395 0.7230967 -0.06591508 -3.9854069
-0.007182287 0.07916465 0.019126862 0.0025959539 0.474585 -0.021239541 0.70760334 1.5815903
0.90553576 -0.10714703 1.2528164 0.019663073 0.4611287 -0.04104514 -0.07995387 -0.23793788
0.01729717 -0.80889124 0.026939856 -0.0110669425 -0.0037319814 -0.025802791 -0.8305401 -0.23861922
0.7676364 -0.016824476 -0.01815055 0.032658257 -0.01874955 0.07672651 0.077753 1.6110001
-3.40133e-05 0.039775796 -0.20237423 -0.12303264 -1.695764 -0.56943613 1.2215493 -0.035141475
0.0065276157 -0.41771486 -1.7482811 -0.9487065 0.6794811 -0.08580582 -0.39462104 0.5630853
-0.025457703 -0.04270472 -0.0029543573 0.03387195 0.3275543 -0.009737147 -0.0045692255 0.05543172
0.05364486 0.006465751 -0.29133895 0.8832732 -0.0118508525 0.7705894 -0.8910661 -0.80215406
0.6656991 -0.0467458 -0.018542014 0.033842493 0.046953868 -1.1947913 -0.07498485 -0.019483712
-0.037685245 0.146056 -0.12802158 -0.03076411 -0.08270117 -2.5757504 -0.09925826 0.040729992
0.08770205 -0.07083003 -0.023626225 -0.045980897 0.21057886 1.5092584 -0.0063653663 -3.4581523
-0.9552078 -0.34447122 -0.017190747 0.11707685 -0.048053004 -1.2806644 -0.24809754 2.4628987
-1.9374013 0.03834544 0.031320952 1.465951 0.55316615 -0.006182056 -0.12297852 0.053014204
0.017517352 0.010221697 -0.87604004 -0.15725136 -1.2287078 0.37097725 0.008804034 -0.0002232707
-0.0033886158 0.19557983 -0.008454532 0.5614336 0.40680495 5.6310287 1.6778021 -0.10108893
-0.55141044 0.17599875 0.020108389 -0.013736745 0.8603671 -0.015719648 -1.930066 0.49477243
0.059911445 0.19072115 -0.9658076 -0.0066360384 0.055395838 0.007419198 0.02214327 0.042168025
-0.21134073 0.35389662 0.038073465 2.471005 0.05905854 0.66887546 -0.46978402 -2.423588

linear2.bias f4 [2]
00000000: 0f25 df3e 93be 7e3f
0.4358296 0.99509543
